02-ANN-Artificial-Neural-Networks/TaxiFareClssModel.pt (torch_old, 110134 bytes, 21 tensors)

embeds.0.weight f4 [24, 12]
0	0x3eede066	0.46460265
1	0x3d361354	0.044452026
2	0xbeec2ebf	-0.46129414
3	0x3f3943d6	0.72369134
4	0x3f21f6a0	0.63266945
5	0xbed96636	-0.42460793
6	0x3faf1f3e	1.3681409
7	0x3c8360e5	0.016037414
8	0xbf99b684	-1.2008824
9	0x3f98d764	1.1940732
10	0x3ec217cb	0.37908778
11	0xbebe901e	-0.37219328
12	0xbd415e9c	-0.047209367
13	0xbfb9fc45	-1.4530112
14	0x3e153019	0.14569129
15	0x3f01b875	0.50672084
16	0xbeca9c34	-0.395723
17	0xbfc3c4fc	-1.529449
18	0x3f9b1f25	1.211888
19	0xbf35d4ad	-0.7102764
20	0x3e21341e	0.15742537
21	0x3f9acb91	1.2093374
22	0xbf169547	-0.5882153
23	0x3f12ba82	0.5731584
24	0x3e9742ad	0.29543057
25	0xbfa62f88	-1.2983255
26	0xbee18bb5	-0.440519
27	0x3e9e3dfd	0.30906668
28	0xbe873d94	-0.26414168
29	0xbf44da0d	-0.7689522
30	0xbfaca6f1	-1.3488446
31	0xbf91a54f	-1.1378573
32	0xbf6a5d4e	-0.9154862
33	0x3ecc9b1b	0.39962086
34	0xbf78e8a4	-0.9722998
35	0x3f40156a	0.75032675
36	0xbfa62fa6	-1.2983291
37	0xbe8e4a02	-0.27790838
38	0xbf948935	-1.1604372
39	0x3fb0c0b0	1.3808804
40	0xbeafb8f9	-0.3432081
41	0x3e65be86	0.2243596
42	0x3efbd9e6	0.4918968
43	0x3f481226	0.7815269
44	0x3f06a6f8	0.52598524
45	0x3e16b660	0.14718008
46	0x3e0250b1	0.12726094
47	0xbe22f185	-0.15912445
48	0xbf840a71	-1.0315686
49	0xbf70d216	-0.94070566
50	0x3fb1bd96	1.3885982
51	0xbfacc79b	-1.3498415
52	0xbe753c01	-0.23948671
53	0xbfc7c6d5	-1.5607554
54	0xbec995d8	-0.39372134
55	0x3f9bdf5c	1.2177539
56	0x3e3a02ca	0.18165126
57	0xbf2b4480	-0.669014
58	0x3f5a97f0	0.8538809
59	0x3f0c5c39	0.5482822
60	0x3e7ec162	0.24878457
61	0xbe9a6e18	-0.3016212
62	0x3f332f9a	0.6999451
63	0xc027ef2f	-2.6239736
64	0xbe35c528	-0.1775099
65	0xc0158356	-2.336141
66	0xbfe3a37c	-1.7784266
67	0x3dd78db9	0.10525078
68	0xbf8c1d4d	-1.0946442
69	0x3f3b498c	0.731591
70	0x3e79c139	0.24390115
71	0x3f58447a	0.84479487
72	0x3e755bcc	0.23960799
73	0x3f8d819a	1.1055176
74	0x3f1b079c	0.60558486
75	0xbf1dc64e	-0.61630714
76	0xbf0d68be	-0.5523795
77	0xbf095c3f	-0.5365638
78	0x3f0f47d2	0.55968964
79	0xbde72466	-0.11286239
80	0x3fc4ed25	1.5384871
81	0xbfa6039a	-1.2969849
82	0xbe128cf0	-0.14311576
83	0x3f984e55	1.1898905
84	0x3fe01b0f	1.7508258
85	0xbe396691	-0.18105532
86	0x3d4a5786	0.049399875
87	0xbf923912	-1.1423666
88	0xbf388a22	-0.72085774
89	0x3d5de0ee	0.054169588
90	0x3f205e2b	0.6264369
91	0xbfa34614	-1.2755761
92	0xbf1a634d	-0.6030777
93	0xbf7ccfbc	-0.9875448
94	0xbedc8d32	-0.43076473
95	0xbf8ced47	-1.1009911
96	0xbf224250	-0.63382435
97	0xbf79d669	-0.9759279
98	0x402b2b9d	2.674537
99	0x3faef431	1.3668271
100	0x3e349a57	0.17637001
101	0xbf21fde4	-0.6327803
102	0xbf089fc2	-0.5336877
103	0x3e628d21	0.22124149
104	0x3f050ec7	0.51975673
105	0x3fa9f46a	1.3277714
106	0x3f2b9130	0.67018414
107	0xbf01b31c	-0.50663924
108	0x3f8847d7	1.0646924
109	0x3dcb8882	0.09938146
110	0x3f96f908	1.1794748
111	0xbe2cea0e	-0.1688616
112	0xbfa330a0	-1.2749214
113	0x3f1e499c	0.6183107
114	0xbe583fa3	-0.21118025
115	0xbf857686	-1.0426795
116	0x3f6c4151	0.92287165
117	0x3fc15bde	1.5106161
118	0xbfa5d76f	-1.295637
119	0x3e3c73d2	0.18403557
120	0xbea65682	-0.32487875
121	0x3fcbbffa	1.5917962
122	0xbec22ddf	-0.37925622
123	0xbed75f9b	-0.4206513
124	0x3f29e811	0.6636973
125	0xbf645273	-0.8918831
126	0xbf78fe35	-0.9726289
127	0x3f3da431	0.7407866
128	0x3ec80146	0.39063472
129	0xbeff308d	-0.4984173
130	0xbfe3721f	-1.7769202
131	0xbf08bd00	-0.5341339
132	0x3eba3424	0.36367905
133	0x3f612d52	0.8795978
134	0xbf4adbc4	-0.79241586
135	0x3fea6baa	1.8314106
136	0x3f609155	0.8772176
137	0x3f75988d	0.959359
138	0x3f6e46d7	0.93076843
139	0xbf7af606	-0.9803165
140	0xbfa5ca1c	-1.2952304
141	0xc000bc3d	-2.0114892
142	0x3c840baa	0.016118843
143	0xbf331307	-0.6995091
144	0xbfbe1698	-1.4850645
145	0xbea02ee7	-0.31285784
146	0x3f60ac87	0.87763256
147	0x3f53c62b	0.82724255
148	0x3e30fc09	0.17283644
149	0x3f89d987	1.0769509
150	0xbf7cf8cb	-0.9881713
151	0x40134ea4	2.3016748
152	0xbe80a6b3	-0.2512718
153	0x3ee6ca2a	0.45076114
154	0x3fb09d6d	1.3798043
155	0xbfb3de31	-1.4052182
156	0x3fe45a1e	1.7840002
157	0x3e8ffbff	0.28121945
158	0xbf445027	-0.766848
159	0xbf898fc1	-1.0746995
160	0xbf69941e	-0.91241634
161	0xbe4b54a5	-0.19856508
162	0x3e7da29f	0.24769066
163	0x3eec9a64	0.4621154
164	0xbe3c9282	-0.18415263
165	0x3d7182e4	0.058962718
166	0xbfd8aa50	-1.6926975
167	0xbfcf79f5	-1.6209093
168	0x3e80514b	0.25062022
169	0xbfb8b027	-1.4428757
170	0x3f89b1d5	1.0757395
171	0x3f7d254e	0.9888505
172	0xbfdd8097	-1.7304868
173	0x3d7696ec	0.060202524
174	0x3fb1cea0	1.3891182
175	0xbe95f22f	-0.29286334
176	0xbf8a1706	-1.0788276
177	0x3ee0532c	0.43813455
178	0x3f8fc355	1.1231486
179	0xbf51e86e	-0.81995285
180	0xbbb0b63f	-0.005392819
181	0xbe4b18c4	-0.19833666
182	0xbd40ed41	-0.047101263
183	0x3e230284	0.15918928
184	0x3f5c6038	0.8608432
185	0x3f856381	1.0420991
186	0xbe054dee	-0.13018009
187	0xbff5cda0	-1.9203377
188	0x3e6de97d	0.232336
189	0xbf56f60d	-0.83969194
190	0xbfcea849	-1.6145107
191	0xbf561d8e	-0.83638847
192	0xbfb1b111	-1.3882161
193	0xbfb18072	-1.3867323
194	0xbf019c26	-0.5062889
195	0xbfb6a022	-1.4267619
196	0xbf7ec23c	-0.9951513
197	0x3d25b1dc	0.040452823
198	0x3f984779	1.1896812
199	0x3fe4fac5	1.7889029
200	0xbdfca9ec	-0.123370975
201	0x3e77f4b6	0.24214444
202	0xbeb92b68	-0.3616593
203	0xbed30ed9	-0.41222265
204	0xbededb6e	-0.43526787
205	0xc008523a	-2.1300187
206	0xbf72b3de	-0.94805706
207	0xbf9f470a	-1.2443554
208	0x3dbc6c30	0.09200323
209	0x3ed56a8b	0.41682848
210	0xbfcaf292	-1.5855277
211	0xbe2e1f8f	-0.17004226
212	0xbf44abb1	-0.7682448
213	0xbef7030d	-0.48244515
214	0xbea7f78b	-0.32806048
215	0x3fa3902d	1.2778374
216	0xbfdb0404	-1.71106
217	0xbf3ac340	-0.7295418
218	0xbf06206a	-0.5239321
219	0xbf7c3db0	-0.9853163
220	0x3f5369d4	0.82583356
221	0xbed51f6b	-0.41625533
222	0x3ee5f200	0.44911194
223	0xbd7f110a	-0.06227211
224	0xbf81fbac	-1.0154929
225	0x3dae17d9	0.08500642
226	0xbf904b27	-1.1272935
227	0xbf71ae8a	-0.9440695
228	0xbfc725d9	-1.5558425
229	0x3eb83d66	0.35984343
230	0xbf733404	-0.95001245
231	0xbe97182c	-0.2951063
232	0x3eb67a1c	0.35640037
233	0x3e181743	0.14852624
234	0x4000a5d5	2.0101216
235	0xbe9d786c	-0.30755937
236	0x3fafeb42	1.374367
237	0xbeb53c01	-0.35397342
238	0xbc89ab0d	-0.016805196
239	0x3fa46864	1.2844357
240	0xbff128b9	-1.8840553
241	0xbf22dff2	-0.63622963
242	0xbcfa74e9	-0.030573325
243	0xbf127ac3	-0.5721857
244	0xbe95780e	-0.29193157
245	0xbd95dfdb	-0.07318088
246	0xbf1aaf5f	-0.60423845
247	0xc0254341	-2.5822299
248	0x3f0863a2	0.5327703
249	0x3f1b9d2c	0.607867
250	0xbf666952	-0.90004456
251	0x3f855022	1.041508
252	0xbf9264a9	-1.1436969
253	0xbe5a198c	-0.21298808
254	0xbf8b4acc	-1.0882201
255	0xbe9db82c	-0.30804574

embeds.1.weight f4 [2, 1]
0	0xbd922e01	-0.07137681
1	0x3e593a8a	0.21213737

embeds.2.weight f4 [7, 4]
0	0x3ea036df	0.31291863
1	0x3eb0b8b1	0.34515908
2	0x3f5a09ec	0.8517139
3	0xbfe5dd89	-1.7958232
4	0x3eeece45	0.46641746
5	0xbf3856f3	-0.72007674
6	0x3f910f39	1.133277
7	0x3eb14950	0.34626245
8	0x3fc82b32	1.5638182
9	0xbfb00a4c	-1.3753142
10	0xbfb90e52	-1.4457495
11	0x3eef7505	0.46768966
12	0x3f305800	0.6888428
13	0xbe9283a7	-0.28616068
14	0xc00137d2	-2.019032
15	0xbfd12a73	-1.634108
16	0xbf1b207a	-0.6059643
17	0xbec356e8	-0.38152242
18	0x3fcc6b4e	1.5970247
19	0x3f1bd947	0.60878414
20	0x3fc9d47f	1.5767974
21	0xbf0e3e0f	-0.55563444
22	0xbfa20bdf	-1.2659873
23	0xbeca0db8	-0.39463592
24	0x3f4933d0	0.78594685
25	0xbf4fc31f	-0.81157106
26	0xbf14cce8	-0.5812516
27	0x3e257aba	0.16160098

bn_cont.weight f4 [6]
0	0x3ed811e4	0.4220115
1	0x3f3507a3	0.7071478
2	0x3f1628aa	0.586558
3	0x3edbd47b	0.42935547
4	0x3ecb9b53	0.3976694
5	0x3f3c12f5	0.73466426

bn_cont.bias f4 [6]
0	0x3de94c52	0.1139151
1	0x3db313a8	0.087439835
2	0xbca0f05d	-0.019645864
3	0x3d6212f3	0.055193853
4	0xbe0f7dcd	-0.14012833
5	0x3c07c3d2	0.008286433

bn_cont.running_mean f4 [6]
0	0x42230176	40.751427
1	0xc293f3ea	-73.976395
2	0x422301ef	40.75189
3	0xc293f2ed	-73.974464
4	0x3fac957d	1.348312
5	0x405400ca	3.3125482

bn_cont.running_var f4 [6]
0	0x3a2df01c	0.00066352054
1	0x3a84db90	0.0010136236
2	0x3a704f54	0.0009167094
3	0x3a8a51ef	0.0010552983
4	0x3f13a519	0.57673794
5	0x41313eae	11.077803

layers.0.weight f4 [200, 23]
0	0x3d43d616	0.04781159
1	0xbdc48e64	-0.09597471
2	0x3d4a532b	0.04939572
3	0xbe1664fa	-0.14686957
4	0xbe06b493	-0.13154821
5	0x3d641867	0.055687334
6	0x3e46eadb	0.19425528
7	0xbd8a0783	-0.06739714
8	0xbc9e9a0d	-0.019360567
9	0x3d8b0a29	0.06789047
10	0xbe08d1cf	-0.13361286
11	0x3e0f8464	0.14015347
12	0x3cd0caa3	0.02548725
13	0xbd45ef60	-0.04832399
14	0xbde5d2b2	-0.112218276
15	0x3d95e423	0.07318904
16	0xbdb1e441	-0.08686114
17	0xbe646441	-0.22303869
18	0x3dd4680a	0.103714064
19	0xbe163f65	-0.1467262
20	0x3e5d5869	0.21615757
21	0x3dbf6d14	0.09346977
22	0x3e09b91e	0.13449523
23	0xbba93c52	-0.0051646614
24	0x3d939658	0.0720641
25	0x3d4ee777	0.05051371
26	0xbc1e70c0	-0.009670436
27	0xbd82e878	-0.06391996
28	0xbcdb6f1b	-0.026786378
29	0xbdbb7aae	-0.09154259
30	0x3b2de681	0.0026535096
31	0xbd320278	-0.043459386
32	0x3c93863c	0.018008344
33	0x3cb367ae	0.021900024
34	0xbd2406b3	-0.04004545
35	0x3df49d40	0.119440556
36	0x3d5f6fd5	0.05455001
37	0xbcca1ccd	-0.024671936
38	0xbbf8e5cc	-0.0075957533
39	0x3e0bcecc	0.13653105
40	0xbe5733c8	-0.21015847
41	0x3d45ff7e	0.04833936
42	0xbd85522a	-0.06509812
43	0xbd065772	-0.032798238
44	0x3ce54303	0.027986055
45	0x3e494775	0.19656165
46	0xbb8cce63	-0.004297064
47	0x3d1235fe	0.035696022
48	0x3c24d57b	0.010060663
49	0xbc492b30	-0.012278363
50	0x3c5e70f0	0.013576731
51	0xbd486b70	-0.048930585
52	0x3d1cebf2	0.038310952
53	0x3ca8ac49	0.020589964
54	0xbd410606	-0.047124885
55	0x3bfa9933	0.0076476573
56	0x3cc4a9ca	0.024006743
57	0xbccb659b	-0.024828723
58	0x3c23a90e	0.009989036
59	0xbc0a272f	-0.008432194
60	0x3c5db898	0.01353278
61	0xbbabf5c5	-0.005247804
62	0x3ad3d2fd	0.0016160902
63	0xbdd3bcb7	-0.10338729
64	0x3d2b78b3	0.041863155
65	0x3d08dcc5	0.033413667
66	0x3d88603b	0.066589795
67	0x3ce34283	0.027741676
68	0xbea1115f	-0.31458566
69	0xbe137c19	-0.14402808
70	0x3d65e42d	0.05612581
71	0xbd9b077f	-0.07569789
72	0xbe191814	-0.14950591
73	0x3b7061fe	0.0036679502
74	0x3e0b0219	0.13575019
75	0xbd399b51	-0.045314137
76	0xbdc73f69	-0.097288914
77	0x3e06b528	0.13155043
78	0xbdb37afe	-0.08763693
79	0x3dcea7fc	0.10090634
80	0x3d90cee6	0.07070713
81	0xbd9d83bf	-0.07691144
82	0xbd87bc66	-0.06627731
83	0xbd5b1454	-0.053486183
84	0x3d263cbb	0.04058526
85	0xbdcdfd3e	-0.10058068
86	0x3d5de36b	0.05417196
87	0x3d4c87b6	0.04993411
88	0x3d31e64e	0.043432526
89	0xbdba745f	-0.09104227
90	0xbe5a0d68	-0.21294177
91	0xbe5409b2	-0.20706823
92	0xbe015143	-0.12628655
93	0x3db217d4	0.08695951
94	0x3db633a4	0.088965684
95	0x3dca1c81	0.09868718
96	0xbd18233e	-0.037142985
97	0x3d92e722	0.07172991
98	0xbd27fd19	-0.041012857
99	0x3c3e3cb2	0.011611151
100	0xbe1a0636	-0.15041432
101	0x3d8745e4	0.066051275
102	0xbdc82693	-0.097729824
103	0x3de67f45	0.112547435
104	0xbc00870f	-0.0078447005
105	0xbc674095	-0.014114519
106	0xbd028d1c	-0.031872854
107	0x3d910ef2	0.07082929
108	0x3d7060c3	0.05868603
109	0xbaeae3c6	-0.0017920665
110	0xbe6cbe5b	-0.2311949
111	0x3e25166f	0.16121839
112	0xbe07525c	-0.13215011
113	0x3d1c886b	0.038216036
114	0xbe196d29	-0.14983048
115	0x3db549ae	0.08851944
116	0x3b3a80af	0.002845805
117	0x3da7c934	0.08192673
118	0xbe198b4e	-0.14994547
119	0xbd71ab06	-0.05900099
120	0xbdab28aa	-0.083573654
121	0xbdba0444	-0.09082845
122	0x3cd7a86e	0.02632543
123	0xbcfb1329	-0.030648785
124	0xbde3bc97	-0.11119955
125	0x3e023146	0.12714109
126	0xbe30c69b	-0.17263262
127	0xbe0a6a99	-0.13517226
128	0xbd79216d	-0.060822893
129	0x3e1adf88	0.15124333
130	0xbe5f99bf	-0.21835993
131	0xbd51d277	-0.051226106
132	0xbe1116dc	-0.14168876
133	0x3e8025bd	0.25028792
134	0xbd1696b3	-0.03676481
135	0x3d9ff176	0.07809727
136	0x3decbf58	0.115599334
137	0x3d2c7873	0.042107057
138	0xbdba09c5	-0.09083895
139	0x3d93bad2	0.072133675
140	0xbcd0fe63	-0.025511926
141	0xbca6f15c	-0.020378761
142	0x3d5cb07d	0.05387925
143	0xbe3cc504	-0.1843453
144	0xbe42e0af	-0.19031022
145	0xbd5ed44f	-0.054401692
146	0xbe5704e6	-0.20997962
147	0xbd9fbb1e	-0.07799362
148	0x3d806129	0.06268532
149	0x3dc64bca	0.09682424
150	0xbc0bed4c	-0.008540463
151	0xbe0c82a6	-0.13721713
152	0x3de34e20	0.110988855
153	0xbe7bd58b	-0.24593179
154	0xbe033cb0	-0.12816119
155	0x3da59045	0.08084158
156	0xbe076308	-0.13221371
157	0x3dd16b5b	0.102255546
158	0xbe50c068	-0.20385897
159	0xbd15a302	-0.03653241
160	0xbd8e24ba	-0.06940599
161	0x3b19533d	0.002339556
162	0xbda00493	-0.078133725
163	0x3dcbe6dc	0.09956142
164	0xbdcdaf32	-0.100431815
165	0x3e32646d	0.17421122
166	0x3dbc5db7	0.09197562
167	0xbdd1da7f	-0.10246753
168	0x3d68f41d	0.05687343
169	0x3dc3b26c	0.09555516
170	0xbc282ec9	-0.010265061
171	0xbe0f6949	-0.14005007
172	0x3dea8d15	0.114526905
173	0xbe0dee84	-0.13860518
174	0xbcbbe85d	-0.022937948
175	0xbd9ee9eb	-0.0775946
176	0xbdbae443	-0.09125569
177	0xbd9a4898	-0.075333774
178	0xbd425596	-0.047444902
179	0x3e34eb2d	0.17667837
180	0x3c861c9c	0.016371064
181	0xbe522ac0	-0.2052412
182	0x3dbe807f	0.093018524
183	0xbe4142e1	-0.18873169
184	0x3c23d586	0.009999638
185	0x3d15a555	0.036534626
186	0x3c1ae434	0.009453822
187	0xbd060804	-0.032722488
188	0xbcc60604	-0.02417279
189	0x3d1c3090	0.03813225
190	0x3cc3f672	0.023921225
191	0xbc409827	-0.011755026
192	0xbd022888	-0.031776935
193	0x3b657d13	0.0035017177
194	0xbcafa076	-0.021438818
195	0xbc41e7f5	-0.011835088
196	0x3d92011a	0.07129116
197	0xbc3391b0	-0.010960028
198	0xbd1c8677	-0.038214173
199	0x3c8e6177	0.01738046
200	0xbcd9508d	-0.026527667
201	0x3d190f0f	0.037367877
202	0xbda314eb	-0.07962974
203	0x3d18c530	0.037297428
204	0xbe3432a1	-0.17597438
205	0xbc8fcc7b	-0.017553559
206	0x3ea7d49b	0.32779393
207	0x3c0d1cfe	0.008612869
208	0xbba14c3e	-0.004922419
209	0xbdc00eb6	-0.09377806
210	0xbcefb3ea	-0.029260594
211	0x3c552746	0.013009852
212	0x3ce14be9	0.027502017
213	0x3d450ccb	0.048107903
214	0xbd80560b	-0.062664114
215	0xbd619560	-0.055074096
216	0x3db07260	0.08615565
217	0xbd05e940	-0.032693148
218	0x3d56e0c9	0.052460466
219	0xbe2161d2	-0.15759972
220	0x3c486376	0.012230745
221	0x3d2e83de	0.042606227
222	0x3c23987c	0.009985086
223	0x3d345ea5	0.044035573
224	0x3e4338f6	0.19064698
225	0xbd823bad	-0.063590385
226	0x3e3f1699	0.18660964
227	0xbe623239	-0.22089471
228	0x3e01caac	0.1267497
229	0xbe68adc7	-0.22722541
230	0x3c8b91d3	0.017037308
231	0x3c490d7a	0.0122712795
232	0x3cdbee18	0.02684693
233	0xbca050a3	-0.0195697
234	0x3bbc893c	0.0057536643
235	0xbcad8070	-0.021179408
236	0x3cc6d963	0.02427358
237	0x3cba1af3	0.022717929
238	0x3ccd6947	0.025074614
239	0xbc566f87	-0.013088114
240	0xbbf8e143	-0.0075952127
241	0xbcbb0206	-0.022828113
242	0x3e82ad93	0.25523052
243	0x3cabdb13	0.020978486
244	0xbb474b17	-0.0030409747
245	0x3c02a896	0.007974764
246	0x3c2dee08	0.010615833
247	0x3c4fa8d5	0.01267453
248	0xbbbdf710	-0.0057972744
249	0x3e5576a9	0.20846047
250	0x3cebf086	0.028801214
251	0x3dafe87d	0.085892655
252	0xbe877210	-0.2645421
253	0xbc679ad0	-0.014136031
254	0xbc0997e5	-0.008398031
255	0xbc9f0c83	-0.019415146

layers.0.bias f4 [200]
0	0xbb28b140	-0.0025740415
1	0x3e13ae4b	0.14421956
2	0x3c30f6f0	0.010801062
3	0x3d9d59a0	0.0768311
4	0x3e5156af	0.20443223
5	0xbdaa9647	-0.083294444
6	0x3e0fc1db	0.14038794
7	0xbdac6e4d	-0.08419476
8	0xbc623708	-0.013807066
9	0x3e0dfe6e	0.13866588
10	0xbddc2795	-0.10749737
11	0x3e5bbdaa	0.2145907
12	0x3d992272	0.07477273
13	0x3df418b4	0.11918774
14	0x3d875b9b	0.06609269
15	0xbcc7f0db	-0.024406841
16	0x3dca939f	0.09891438
17	0xbd699038	-0.057022303
18	0xbdeb4a54	-0.11488786
19	0x3d8da82e	0.06916843
20	0x3df17da8	0.11791545
21	0xbe40600b	-0.18786637
22	0xbdcb0463	-0.09912946
23	0x3e7139f8	0.2355727
24	0x3e320eef	0.17388509
25	0x3d5af444	0.053455606
26	0x3e2f3bf0	0.17112708
27	0xbdb7a46e	-0.08966909
28	0x3d9ecbbf	0.07753705
29	0x3e13089b	0.14358751
30	0x3d6e1b38	0.058131427
31	0xbcedb3aa	-0.029016335
32	0x3d972df0	0.07381809
33	0xbc5cda95	-0.013479848
34	0xbcc832f6	-0.024438363
35	0x3e054313	0.13013868
36	0xbe0ad133	-0.13556366
37	0x3de03533	0.10947647
38	0x3e1e1516	0.15437731
39	0x3dcd5e4e	0.10027753
40	0xbc681c89	-0.01416696
41	0xbcc2e7fc	-0.02379226
42	0x3e8babe8	0.27279592
43	0x3e5ecdd4	0.21758205
44	0xbd87a4e8	-0.0662325
45	0xbe2255e8	-0.15853083
46	0xbd6fd83b	-0.058555823
47	0x3d19191e	0.03737747
48	0x3d705bc9	0.058681283
49	0xbe07ab5e	-0.13248965
50	0xbea3c59c	-0.319867
51	0x3c554c0b	0.013018618
52	0x3e36bddd	0.17845865
53	0x3ccf736a	0.025323588
54	0x3e14e235	0.14539416
55	0xbd10d30e	-0.035357527
56	0xbe61a65d	-0.22036119
57	0x3dd26730	0.10273588
58	0x3e03d53b	0.1287431
59	0xbd924876	-0.07142727
60	0x3e0075e5	0.12544973
61	0xbe024440	-0.12721348
62	0x3e44c813	0.19216947
63	0xbda95d8e	-0.08269797
64	0x3e2eba30	0.17063212
65	0xbd6c3cc0	-0.057675123
66	0x3e04a7e1	0.12954666
67	0xbe050a0a	-0.12992111
68	0xbdb5d55b	-0.08878585
69	0x3e241f32	0.16027525
70	0x3e20902a	0.15679994
71	0x3d8f7b9f	0.07006001
72	0x3e1a80df	0.15088223
73	0x3e5a59e0	0.21323347
74	0x3e819637	0.25309917
75	0x3db07d51	0.08617652
76	0x3d0afc46	0.033931993
77	0xbcc7d4f9	-0.024393545
78	0x3dabce32	0.08388938
79	0xbdbad034	-0.09121743
80	0xbde9b1bf	-0.114108555
81	0x3cd353ed	0.025796855
82	0xbdbc28ee	-0.09187494
83	0x3e8b8fe5	0.2725822
84	0x3d18aa33	0.03727169
85	0xbbb3896f	-0.00547903
86	0x3e3bb572	0.18330935
87	0xbdee7f9b	-0.116454326
88	0x3dc9dcd3	0.09856572
89	0xbd6a72e8	-0.05723849
90	0x3e1556ad	0.14583845
91	0x3da587d4	0.08082548
92	0x3e268db3	0.16264991
93	0xbe260c89	-0.1621572
94	0x3e027272	0.1273897
95	0x3cde8d26	0.027166914
96	0x3e1527b4	0.14565927
97	0x3d8acba1	0.067771204
98	0x3d94ef96	0.0727226
99	0xbe36c1ce	-0.17847368
100	0x3e81488c	0.2525066
101	0x3e1b037c	0.15138048
102	0xbd6ba0d1	-0.057526413
103	0x3bb09994	0.0053894017
104	0x3e36f65b	0.17867415
105	0x3e2958dd	0.16537805
106	0xbc6b6b8c	-0.014368903
107	0x3dacfff6	0.08447258
108	0x3e130552	0.14357498
109	0xbcf739f5	-0.030179003
110	0x3e240e88	0.16021168
111	0xbd38a45b	-0.045078617
112	0x3d87b7ee	0.06626879
113	0xbd239615	-0.03993805
114	0x3e05b450	0.13057065
115	0xbd89652e	-0.067087516
116	0xbe07fc0d	-0.13279743
117	0x3de96e39	0.113979764
118	0x3d846f5e	0.06466554
119	0xbdcdfcc6	-0.10057978
120	0x3dbef84a	0.09324701
121	0x3cfacaa4	0.030614205
122	0x3c6d60f2	0.014488446
123	0x3dcf9b4e	0.10137044
124	0x3e57f25e	0.2108855
125	0x3e3559dd	0.17710061
126	0x3d8ceea3	0.06881454
127	0x3ce03d57	0.027373
128	0xbeade767	-0.33965608
129	0x3e593cec	0.21214646
130	0xbd8b2bd6	-0.067954704
131	0x3cef756b	0.029230794
132	0x3e674302	0.22584155
133	0x3d4367b4	0.04770632
134	0x3e6ca7c4	0.23110873
135	0xbcd0eb26	-0.025502753
136	0x3d663e22	0.0562116
137	0x3e540b45	0.20707424
138	0xbbacfdac	-0.0052792635
139	0x3e071406	0.13191232
140	0x3e22b8d5	0.1589082
141	0x3deb2a53	0.11482682
142	0x3bef6789	0.0073060435
143	0x3bafb000	0.005361557
144	0x3e072c74	0.13200551
145	0x3c8dfb33	0.017331695
146	0x3b0e176c	0.002168144
147	0xbdf50064	-0.11962965
148	0xbd833714	-0.0640699
149	0x3e6196bd	0.22030158
150	0x3e29eb7d	0.16593738
151	0x3d1b999f	0.0379883
152	0xbcaa7a45	-0.020810256
153	0x3e2cab62	0.16862252
154	0x3e30c4e3	0.17262606
155	0x3e547bc7	0.20750342
156	0xbd4f8d7d	-0.050672043
157	0x3d98e01f	0.07464623
158	0xbded944b	-0.1160055
159	0xbd2ca35b	-0.042147975
160	0x3e366bcc	0.17814559
161	0x3d5dba0b	0.054132503
162	0x3da5f239	0.08102841
163	0xbe4c97ea	-0.19979826
164	0x3cb147eb	0.021640738
165	0x3e4c1f70	0.19933867
166	0x3e2a071f	0.16604279
167	0xbe4bc741	-0.19900228
168	0x3cd5b9d4	0.026089586
169	0xbdedcb63	-0.116110586
170	0xbdbf9a5b	-0.09355613
171	0x3e20ddd3	0.15709619
172	0xbe2665d8	-0.16249788
173	0xbe44eb26	-0.19230327
174	0x3e32d3c5	0.17463596
175	0xbdfadfc8	-0.12249714
176	0x3e3e2177	0.18567453
177	0x3d3d8dc7	0.046277788
178	0xbdb9d7e2	-0.090743795
179	0xbddf7db9	-0.109126516
180	0x3dac4689	0.08411891
181	0x3e36786e	0.17819378
182	0x3dcd3700	0.10020256
183	0x3d3239ef	0.04351228
184	0xbe43fb9e	-0.19138953
185	0x3e058e4c	0.13042563
186	0xbe058d4e	-0.13042185
187	0xbd346e93	-0.044050764
188	0x3e83a195	0.25709215
189	0xbac7902e	-0.0015225464
190	0xbdf51bd8	-0.119682014
191	0x3e0b46f8	0.13601291
192	0x3e1efdb1	0.15526463
193	0x3e3b3baf	0.18284486
194	0x3deda8d6	0.116044685
195	0x3e4d1335	0.20026858
196	0xbda5d4d9	-0.08097238
197	0x3e47bb90	0.19505143
198	0x3e808941	0.25104716
199	0x3dd32560	0.10309863

layers.2.weight f4 [200]
0	0x3e5c9611	0.21541621
1	0x3f30ecf7	0.6911158
2	0x3f460f63	0.7736723
3	0x3e49feef	0.19726156
4	0x3eebacf0	0.46030378
5	0x3f08213f	0.5317573
6	0x3da58151	0.08081306
7	0x3f2daf42	0.6784555
8	0x3e9d3756	0.3070628
9	0x3ee3f456	0.4452235
10	0x3e1f9972	0.15585878
11	0x3eb6f699	0.35735014
12	0x3da38d63	0.07985952
13	0x3f1132fd	0.56718427
14	0x3f485fb1	0.78271013
15	0x3f5387a2	0.82628834
16	0x3f08f81b	0.5350358
17	0x3ea0dcac	0.3141836
18	0x3f206baf	0.6266431
19	0x3e41c863	0.18924098
20	0x3f26d653	0.6517078
21	0x3f2aa0ee	0.6665181
22	0x3f6a0ad1	0.91422755
23	0x3f649370	0.8928747
24	0x3e6c28b6	0.23062405
25	0x3ea72505	0.3264543
26	0x3f333162	0.6999723
27	0x3f0d13bb	0.5510823
28	0x3f1f8339	0.62309605
29	0x3ef04e9f	0.46934983
30	0x3ddd1dc5	0.10796694
31	0x3f6738dc	0.90321136
32	0x3e0f3a2c	0.13987035
33	0x3f3fc620	0.7491169
34	0x3f4109b1	0.7540541
35	0x3f5fb124	0.8737967
36	0x3ef2321b	0.47303852
37	0x3e62de89	0.22155203
38	0x3ee165ee	0.4402308
39	0x3f2ec057	0.6826224
40	0x3e68ab3d	0.22721572
41	0x3f163660	0.5867672
42	0x3f5e9598	0.8694701
43	0x3e5e19a5	0.2168947
44	0x3eded865	0.4352447
45	0x3f18f3c9	0.59746987
46	0x3efdcb28	0.49569058
47	0x3f695257	0.91141266
48	0x3f34b5d3	0.7058994
49	0x3efe3856	0.49652356
50	0x3e359300	0.17731857
51	0x3f6e39e7	0.930571
52	0x3f258035	0.64648753
53	0x3eea6c22	0.45785624
54	0x3e499e2d	0.19689246
55	0x3f669a03	0.90078753
56	0x3f2b66c8	0.66953707
57	0x3f639292	0.88895524
58	0x3f720d2f	0.94551367
59	0x3f368082	0.7128984
60	0x3f3b8845	0.73254806
61	0x3f34f926	0.7069267
62	0x3e391a2e	0.18076393
63	0x3ee92cbb	0.4554194
64	0x3ee53519	0.44767073
65	0x3e123ed3	0.14281778
66	0x3e9c8e40	0.30577278
67	0x3f2fd0f8	0.68678236
68	0x3f34de31	0.7065154
69	0x3eaf5071	0.3424106
70	0x3effe70b	0.4998096
71	0x3f2b3d46	0.6689037
72	0x3f216254	0.6304066
73	0x3f36d4c7	0.7141842
74	0x3e3adc24	0.1824804
75	0x3f00e676	0.50351655
76	0x3dd9f79d	0.106429316
77	0x3ecadd94	0.39622176
78	0x3f10042c	0.56256366
79	0x3ec6ba96	0.3881423
80	0x3f584052	0.84473145
81	0x3e4b271f	0.19839142
82	0x3f44b0db	0.7683236
83	0x3e2f4b34	0.17118531
84	0x3e99cf4b	0.30040964
85	0x3edebf9c	0.4350556
86	0x3da159cb	0.07878455
87	0x3eb819b9	0.35957125
88	0x3ed09df1	0.407455
89	0x3f14f083	0.5817949
90	0x3f1f9393	0.62334555
91	0x3eeb94c2	0.4601193
92	0x3e2c61ac	0.16834134
93	0x3dc6c942	0.09706356
94	0x3f661db2	0.8988906
95	0x3ec2c130	0.38038015
96	0x3ec6ff46	0.38866633
97	0x3e813ffc	0.2524413
98	0x3f370ed3	0.71506995
99	0x3e126a54	0.14298373
100	0x3f3aaff6	0.72924745
101	0x3eeb6089	0.45972088
102	0x3f106dc0	0.56417465
103	0x3ebf073d	0.3731021
104	0x3dcaed04	0.099084884
105	0x3f54002d	0.8281277
106	0x3e479cfa	0.19493476
107	0x3f5ae79f	0.85509676
108	0x3f0a1bbf	0.5394859
109	0x3f604bf0	0.8761587
110	0x3f788f9e	0.9709414
111	0x3e1bb21c	0.15204662
112	0x3ec7871c	0.38970268
113	0x3ea0bed6	0.31395596
114	0x3e607fea	0.21923795
115	0x3f1c627a	0.61087763
116	0x3eed660d	0.4636692
117	0x3f3e7f1a	0.7441269
118	0x3f29376e	0.66100204
119	0x3f005f33	0.5014526
120	0x3f442e18	0.76632833
121	0x3edf1db8	0.4357736
122	0x3e04ef35	0.12981875
123	0x3f07aea6	0.5300087
124	0x3f42e1df	0.761259
125	0x3ef6a995	0.48176256
126	0x3ea668d9	0.32501867
127	0x3f1b22e4	0.60600114
128	0xbe6c2096	-0.23059306
129	0x3ea62a63	0.32454214
130	0x3daa3ac2	0.083119884
131	0x3eb604a8	0.35550427
132	0x3e54f4bd	0.20796485
133	0x3f47e6e7	0.78086704
134	0x3f4ab3eb	0.79180783
135	0x3f08885b	0.5333306
136	0x3e65dbf9	0.22447194
137	0x3ecd6fe7	0.40124437
138	0x3f6ec9f7	0.93276924
139	0x3e3dd4e5	0.18538244
140	0x3f72f20e	0.94900596
141	0x3e8023ab	0.25027213
142	0x3f085ef4	0.53269887
143	0x3e4cfcb9	0.20018281
144	0x3f0f5499	0.5598846
145	0x3f5a3a67	0.85245365
146	0x3f1834ff	0.59455866
147	0x3e4192b2	0.18903616
148	0x3f694114	0.91114926
149	0x3eb664ff	0.3562393
150	0x3efcaaf8	0.4934919
151	0x3f13aa34	0.57681584
152	0x3f672a10	0.9029856
153	0x3f4d8869	0.8028627
154	0x3f0f167b	0.5589368
155	0x3e365ac6	0.17808065
156	0x3f62983d	0.8851355
157	0x3eeb4efc	0.45958698
158	0x3e5b19ca	0.21396556
159	0x3f0f191b	0.5589768
160	0x3f0299d0	0.5101595
161	0x3ed2cba4	0.4117099
162	0x3ed664ad	0.41873685
163	0x3f5cb329	0.86210877
164	0x3ede7878	0.43451285
165	0x3f160d57	0.58614105
166	0x3eae0750	0.33989954
167	0x3f0010fd	0.5002592
168	0x3f2306d2	0.6368228
169	0x3e2ad178	0.16681468
170	0x3f6ae80d	0.9176033
171	0x3f254d02	0.6457063
172	0x3ef6c8d0	0.48200083
173	0x3f55585f	0.8333797
174	0x3d815601	0.06315232
175	0x3e8348db	0.25641522
176	0x3df7250b	0.12067612
177	0x3e78498a	0.24246803
178	0xbd6f0141	-0.058350805
179	0x3f303ae9	0.6883989
180	0x3f47cf72	0.7805091
181	0x3ec7a508	0.38993096
182	0x3e4bc96f	0.1990106
183	0x3f5b5232	0.85672295
184	0x3edf4654	0.43608344
185	0x3f08b7de	0.5340556
186	0x3eb8cde7	0.3609459
187	0x3f6443f4	0.8916619
188	0x3f3f72e9	0.74784714
189	0x3edc37e4	0.4301139
190	0x3f314784	0.6924975
191	0x3ecf3dd3	0.40476856
192	0x3eb5f4be	0.35538286
193	0x3f6f39b6	0.93447435
194	0x3f1da863	0.6158506
195	0x3f0d986d	0.5531071
196	0x3f16d554	0.5891926
197	0x3f53a18a	0.82668364
198	0x3ed5123b	0.4161547
199	0x3f1cb72e	0.6121701

layers.2.bias f4 [200]
0	0xbdd6ecb6	-0.10494368
1	0xba80180e	-0.0009772794
2	0xbce77893	-0.028255736
3	0x3d77f36e	0.060534887
4	0xbde92942	-0.113848224
5	0xbe185742	-0.14877036
6	0x3da45f96	0.08026044
7	0x3b1e9fb8	0.0024204087
8	0x3d17b281	0.03703547
9	0xbda84de7	-0.08217984
10	0x3b0f2bc0	0.0021846145
11	0x3cb1f7c6	0.021724593
12	0xbe2d396d	-0.16916437
13	0xbda394f4	-0.07987395
14	0xbdbe4a41	-0.092915066
15	0xbd4b0ef8	-0.049574822
16	0x3bc40eb1	0.0059831967
17	0xbd8e2c69	-0.06942064
18	0xbe003550	-0.12520337
19	0x3e2f20e4	0.1710239
20	0xbd1137a4	-0.035453454
21	0xbde9b034	-0.11410561
22	0xbc38dcca	-0.011283109
23	0x3cfdb247	0.030968798
24	0x3d5fb9a1	0.05462039
25	0xbd930f40	-0.07180643
26	0x3da39090	0.079865575
27	0xbb859489	-0.0040765447
28	0x3d6b215a	0.057404853
29	0xbcc6c329	-0.024262981
30	0xbc92eef1	-0.017936202
31	0x3e3e14aa	0.1856257
32	0x3ca561f9	0.020188319
33	0x3d9cc2ae	0.0765432
34	0xbdb1ecf8	-0.08687776
35	0x3d041a8c	0.03225188
36	0xbddf93a1	-0.1091683
37	0xbd3f4b75	-0.04670282
38	0x3d445de1	0.047941092
39	0xbde272d2	-0.110570565
40	0x3c35b8b6	0.011091402
41	0x3ddaa8ee	0.10676752
42	0x3dd26e27	0.10274916
43	0xbd4b1493	-0.049580168
44	0x3c02ba82	0.007979037
45	0xbdf6001f	-0.12011742
46	0x3c522977	0.012827269
47	0x3cb102bb	0.021607747
48	0xbdfe2647	-0.124096446
49	0x3dab16a8	0.08353931
50	0x3c8c8516	0.017153304
51	0x3c11ccde	0.008898942
52	0xbe321d7f	-0.17394064
53	0xbc1e4930	-0.009661004
54	0x3d345946	0.04403045
55	0x3d2ba789	0.04190782
56	0x3d1e84d1	0.038700882
57	0x3d9c2ba2	0.0762551
58	0xbcd37e48	-0.025817052
59	0xbc3cb5f2	-0.0115179885
60	0xbd914aeb	-0.070943676
61	0xbdec2744	-0.11530927
62	0xbdd815c2	-0.10551025
63	0xbcdd6ce4	-0.027029462
64	0xbc4613b0	-0.012089655
65	0xbc1e584a	-0.009664604
66	0x3b5cccdf	0.0033691449
67	0x3d846526	0.06464605
68	0x3cd2a435	0.025713066
69	0x3d26a8a8	0.040688187
70	0xbc5f672d	-0.013635439
71	0xbd542f14	-0.05180271
72	0x3d570c75	0.052502114
73	0x3ddb5323	0.107092164
74	0x3c82f479	0.015985714
75	0x3d495a3a	0.049158312
76	0xbe517a6e	-0.2045686
77	0xbdb1b483	-0.08677008
78	0xbb9d0e87	-0.0047929916
79	0x3d2d9799	0.042380903
80	0x3ca439ca	0.020047087
81	0x3cae93b9	0.021310674
82	0x3d7b43c6	0.06134393
83	0xbd162ec0	-0.036665678
84	0x3cd9b536	0.026575666
85	0x3d6b6b85	0.057475585
86	0xbbf97cd2	-0.0076137567
87	0xbd4daeda	-0.05021558
88	0x3d62a55f	0.05533349
89	0x3d6d41d6	0.057924114
90	0xbd233886	-0.039848827
91	0x3cfd9ef7	0.03095959
92	0x3ced4868	0.02896519
93	0x3c6d5eb8	0.014487915
94	0xbd7a65a3	-0.061132085
95	0x3d5b1d68	0.05349484
96	0xbc5e896d	-0.01358257
97	0x3e059fc1	0.13049223
98	0x3da21b33	0.07915344
99	0x3d0f3850	0.034965813
100	0x3db45de7	0.08806973
101	0x3d21354f	0.03935748
102	0x3cafef77	0.02147649
103	0xbca63aaf	-0.020291654
104	0x3e6a37b0	0.22872806
105	0x3d730ccf	0.059338387
106	0x3cac7592	0.021052156
107	0x3e0358d9	0.12826861
108	0xbdf9e067	-0.122010045
109	0x3c45d30e	0.012074245
110	0x3d6f3f3d	0.058409918
111	0xbdd6f862	-0.10496594
112	0xbc26600c	-0.010154735
113	0xbc4cf69c	-0.012509968
114	0x3c003f27	0.007827557
115	0x3a0f4840	0.0005465783
116	0x3c5c6e30	0.013454005
117	0x3dee09af	0.11622941
118	0x3c806c83	0.015676742
119	0xbd519099	-0.05116329
120	0x3cabaa0a	0.020955104
121	0xbd96054e	-0.073252305
122	0x3a9b8845	0.0011866173
123	0xbdedb2ad	-0.11606345
124	0x3d424e11	0.04743773
125	0xbd725660	-0.059164405
126	0xbd8a4564	-0.067515165
127	0xbcc0b826	-0.023525309
128	0x3e22ac44	0.15886027
129	0x3d67c941	0.056588415
130	0x3e5e09cf	0.21683429
131	0xbc67dc15	-0.014151593
132	0x3ccafda8	0.024779156
133	0x3c2a9b2e	0.010412974
134	0x3d99898d	0.07496939
135	0x3dbd61a8	0.09247142
136	0x3d0ff86a	0.035149015
137	0x3db84197	0.08996885
138	0xbd54886f	-0.051887926
139	0x3cbe5970	0.023236006
140	0x3d203c4b	0.03912
141	0xbd094402	-0.033512123
142	0xbda45e25	-0.08025769
143	0xbe3970db	-0.18109457
144	0xbd8b9285	-0.06815056
145	0x3d113052	0.035446472
146	0xbdb49865	-0.088181295
147	0xbdb24c17	-0.08705919
148	0xbde9eb0f	-0.11421787
149	0xbdbb4b01	-0.09145165
150	0x3d8dcd7b	0.06923958
151	0x3d423840	0.047416925
152	0x3d1b5400	0.037921906
153	0x3db8790e	0.09007464
154	0xbce74314	-0.028230228
155	0x3d04924b	0.03236608
156	0xbcc2779b	-0.023738673
157	0x3d35daf7	0.044398274
158	0x3bc55644	0.0060222466
159	0x3de783bd	0.11304424
160	0x3d245673	0.040121507
161	0xbc940f08	-0.018073574
162	0x3d935eb6	0.07195799
163	0xbced3a20	-0.02895838
164	0x3d6ffd8b	0.058591407
165	0x3d03002c	0.031982586
166	0x3d28eb1b	0.04123984
167	0xbd074f61	-0.033034686
168	0x3d97aefe	0.07406424
169	0x3d91aa53	0.07112565
170	0x3dbbe73e	0.09174965
171	0xbd509770	-0.050925672
172	0xbc4d92e3	-0.012547228
173	0xbdb737b8	-0.089461744
174	0xbe56005e	-0.20898578
175	0xbd09b8e7	-0.033623602
176	0x3d54b705	0.051932354
177	0x3d5d624c	0.05404882
178	0xbe58fb5c	-0.21189636
179	0xbdf69f94	-0.12042156
180	0x3db5775f	0.08860659
181	0x3daf37a4	0.085555345
182	0x3c1ed58e	0.00969447
183	0x3954fa22	0.00020311077
184	0xbd82a987	-0.06379991
185	0x3cb54ce1	0.022131385
186	0xbd2f12d5	-0.04274257
187	0x3d32690f	0.043557223
188	0xbdbb2b39	-0.091391034
189	0x3d354dee	0.044263773
190	0xbb0ae350	-0.0021192618
191	0x3dcdf8e6	0.10057239
192	0xbd740ca6	-0.059582375
193	0x3d82097c	0.06349465
194	0x3d72c6bf	0.05927157
195	0x3b842971	0.0040332605
196	0xbca1e863	-0.019764131
197	0x3d275dbe	0.040860884
198	0x3d23078b	0.039802115
199	0xbd2760f2	-0.04086394

layers.2.running_mean f4 [200]
0	0x3e935d53	0.28782138
1	0x3e5386a4	0.2065683
2	0x3daae202	0.08343889
3	0x3e763797	0.24044643
4	0x3e7c4dc5	0.24639042
5	0x3e3908f7	0.18069826
6	0x3e9b81c4	0.3037244
7	0x3e3157a7	0.17318593
8	0x3db10ea2	0.08645369
9	0x3e3857d7	0.18002258
10	0x3d524a1a	0.0513402
11	0x3e864634	0.26225436
12	0x3e2b9f7e	0.1676006
13	0x3e29694b	0.16544072
14	0x3e5ebf57	0.21752678
15	0x3e360a9c	0.17777485
16	0x3eab29a6	0.33430213
17	0x3dd42454	0.103584915
18	0x3e7e96d0	0.24862218
19	0x3e14f9d7	0.14548431
20	0x3eeb2db4	0.45933306
21	0x3de6d93c	0.11271903
22	0x3e4c6fb1	0.19964482
23	0x3e928bdb	0.28622326
24	0x3e5c9a0d	0.2154314
25	0x3e9aa8af	0.3020682
26	0x3eaa8c89	0.33310345
27	0x3d4872bd	0.048937548
28	0x3f11ee08	0.5700383
29	0x3e91cda2	0.28477198
30	0x3e443e62	0.19164422
31	0x3d99f387	0.07517152
32	0x3e32b175	0.17450507
33	0x3eb15750	0.34636927
34	0x3e0514b7	0.12996183
35	0x3e84f279	0.25966242
36	0x3e1509f8	0.14554584
37	0x3eb41b4a	0.3517707
38	0x3e394843	0.18093972
39	0x3e8261d5	0.25465265
40	0x3d9b0e60	0.07571101
41	0x3da63ff2	0.08117665
42	0x3ecb24fc	0.39676654
43	0x3eba20cc	0.36353147
44	0x3ddd1fbc	0.107970685
45	0x3e84c754	0.25933325
46	0x3e0fbe3b	0.14037411
47	0x3dd29480	0.102822304
48	0x3e0932ab	0.13398235
49	0x3de5ac11	0.1121446
50	0x3d7d2410	0.06180197
51	0x3dc74c54	0.09731355
52	0x3e5dcb3d	0.2165956
53	0x3ed240f3	0.41065177
54	0x3e396584	0.18105131
55	0x3e0dbcc0	0.13841534
56	0x3decfcbc	0.11571643
57	0x3ee40dd5	0.44541803
58	0x3eb6b96a	0.35688335
59	0x3e81098d	0.252026
60	0x3ea1dabf	0.31612203
61	0x3e3a3a50	0.18186307
62	0x3ebcd1de	0.36878866
63	0x3db477b6	0.088118955
64	0x3ecd2ad3	0.40071735
65	0x3e22c432	0.15895155
66	0x3e567a3d	0.20945068
67	0x3e23a053	0.15979128
68	0x3e1c7a02	0.15280917
69	0x3e6213c1	0.22077848
70	0x3e59393c	0.2121324
71	0x3e05534e	0.1302006
72	0x3eb95b79	0.362026
73	0x3e723d6a	0.2365624
74	0x3e6f0c61	0.23344566
75	0x3ee53d72	0.44773442
76	0x3e88f323	0.26748
77	0x3e36736b	0.17817466
78	0x3ec1e652	0.37871033
79	0x3d5b30d7	0.053513374
80	0x3dda75a7	0.10666972
81	0x3e21276a	0.15737692
82	0x3df2be21	0.118526705
83	0x3ea02af4	0.3128277
84	0x3e8a1754	0.26970923
85	0x3d417835	0.04723378
86	0x3e9e0068	0.30859685
87	0x3e0e6f0e	0.13909552
88	0x3df6a830	0.12043798
89	0x3e75ab05	0.2399102
90	0x3e40ad42	0.18816093
91	0x3e299e2b	0.16564243
92	0x3e4f8de1	0.20268966
93	0x3db2d533	0.08732071
94	0x3ee556b5	0.44792715
95	0x3d587593	0.052846503
96	0x3e50a402	0.20375064
97	0x3efc19fc	0.49238575
98	0x3e5ff371	0.2187021
99	0x3dd39388	0.10330874
100	0x3e809c74	0.25119364
101	0x3e77e2b2	0.24207571
102	0x3d906a8e	0.07051574
103	0x3e2ab964	0.16672283
104	0x3eae72ad	0.34071866
105	0x3ea2f155	0.31824747
106	0x3dcdcc2f	0.100487106
107	0x3e185340	0.14875507
108	0x3e92263e	0.285448
109	0x3e9d1f59	0.3068798
110	0x3e30d567	0.17268907
111	0x3e9fb823	0.31195173
112	0x3e4de1ec	0.20105714
113	0x3e474802	0.19461063
114	0x3dffe396	0.124945804
115	0x3e53fbf9	0.20701589
116	0x3e6a7b51	0.22898604
117	0x3e04c5a3	0.12966017
118	0x3e26abe9	0.16276516
119	0x3dd36879	0.10322661
120	0x3ea5a4cc	0.32352293
121	0x3e28b3c0	0.16474819
122	0x3e8f3153	0.2796732
123	0x3ed94b7e	0.42440408
124	0x3eae4549	0.34037235
125	0x3e96fb9d	0.2948884
126	0x3e520577	0.20509897
127	0x3e681995	0.22666009
128	0x3c99ad44	0.018759377
129	0x3e8134c9	0.25235584
130	0x3e900bc6	0.28133982
131	0x3e1878ac	0.14889783
132	0x3e8d4863	0.2759429
133	0x3e2a1811	0.16610743
134	0x3eca739b	0.39541325
135	0x3d741f0b	0.059599917
136	0x3d9dd63f	0.0770688
137	0x3ebe636b	0.37185225
138	0x3e544605	0.20729835
139	0x3e11aa2a	0.14225069
140	0x3e81cd1e	0.25351804
141	0x3e468204	0.19385535
142	0x3e30fb8f	0.17283462
143	0x3e38e4c6	0.1805602
144	0x3e32f5be	0.17476556
145	0x3e328649	0.17434038
146	0x3e00bba7	0.12571584
147	0x3e3f7245	0.18695934
148	0x3e3cbf80	0.18432426
149	0x3ea46d56	0.32114667
150	0x3e6b99e9	0.23007931
151	0x3e8e7495	0.2782332
152	0x3e0b7ecb	0.13622586
153	0x3e954424	0.2915355
154	0x3e698a22	0.228066
155	0x3e823846	0.25433558
156	0x3e2a1f41	0.16613485
157	0x3e630cf8	0.22172916
158	0x3e2b35da	0.16719761
159	0x3e63295a	0.22183743
160	0x3e8af3c6	0.2713911
161	0x3e90d2ea	0.28285915
162	0x3ed60159	0.41797903
163	0x3e279fb9	0.16369523
164	0x3e233bb1	0.15940739
165	0x3ead1615	0.3380591
166	0x3e321e7c	0.17394441
167	0x3d8ad1d9	0.067783065
168	0x3e7be656	0.24599585
169	0x3e5b0864	0.2138992
170	0x3db55089	0.088532515
171	0x3e9a42c2	0.30129057
172	0x3dcde35b	0.1005313
173	0x3e2b5b27	0.1673399
174	0x3ecd4261	0.40089706
175	0x3e8ecc19	0.2789009
176	0x3edcfe12	0.4316259
177	0x3dc71b99	0.09722061
178	0x3e33d43c	0.1756143
179	0x3de87c56	0.1135184
180	0x3e410298	0.18848646
181	0x3e67101d	0.2256474
182	0x3e415d64	0.18883282
183	0x3e98f004	0.29870617
184	0x3e1e21d3	0.1544259
185	0x3e16576d	0.14681788
186	0x3e1ae116	0.15124926
187	0x3e473d6d	0.19457026
188	0x3e7d1588	0.24715245
189	0x3d467646	0.048452638
190	0x3e323f6c	0.17407006
191	0x3e330a46	0.17484388
192	0x3e734867	0.23758088
193	0x3e8007c4	0.25005925
194	0x3e435ff0	0.19079566
195	0x3ec882b8	0.3916223
196	0x3ded39cc	0.115832895
197	0x3eea8389	0.45803478
198	0x3e821a24	0.2541057
199	0x3e570d2e	0.21001121

layers.2.running_var f4 [200]
0	0x3e0ce297	0.13758312
1	0x3d74e59b	0.05978928
2	0x3c2ff68a	0.010739932
3	0x3dc0ff9f	0.09423756
4	0x3d91e736	0.07124178
5	0x3ddda17f	0.108218186
6	0x3e4230dd	0.18963952
7	0x3d7efea5	0.062254567
8	0x3cd67c6e	0.02618238
9	0x3d1495c7	0.03627565
10	0x3bea4400	0.0071492195
11	0x3caff5c6	0.021479499
12	0x3db28527	0.08716803
13	0x3cf5708d	0.029960895
14	0x3dd16832	0.10224952
15	0x3d8f0cbb	0.0698485
16	0x3dd8036f	0.1054753
17	0x3d1d9ab2	0.038477607
18	0x3dbe1a52	0.09282364
19	0x3d322a3b	0.043497305
20	0x3e8084f1	0.25101426
21	0x3d5b5cbc	0.053555235
22	0x3d95d1e3	0.07315423
23	0x3da6b1b8	0.08139366
24	0x3c73b2c7	0.014874167
25	0x3dcccf93	0.10000529
26	0x3e388f48	0.18023407
27	0x3c03aa17	0.008036158
28	0x3e6acfd9	0.2293085
29	0x3d599188	0.053117305
30	0x3d09e032	0.033661075
31	0x3d43ae19	0.047773454
32	0x3db391f1	0.087680705
33	0x3e2829d6	0.16422209
34	0x3d376f13	0.044783663
35	0x3da54957	0.08070629
36	0x3d82269a	0.06355019
37	0x3e4364a7	0.19081365
38	0x3c27b94d	0.01023705
39	0x3da03bdf	0.078239195
40	0x3ccbb440	0.024866223
41	0x3d3580c2	0.044312246
42	0x3e20e539	0.15712442
43	0x3e293433	0.16523819
44	0x3d2f18ce	0.042748265
45	0x3e0eec7c	0.13957399
46	0x3d504fe3	0.050857436
47	0x3cd8f0be	0.026481982
48	0x3cdc569e	0.026896771
49	0x3d1dc578	0.0385184
50	0x3d15043b	0.036380988
51	0x3d19a217	0.037508097
52	0x3db1996a	0.086718395
53	0x3e20e046	0.15710554
54	0x3c33dd1c	0.01097801
55	0x3d4dbefe	0.050230972
56	0x3d1e1acf	0.038599785
57	0x3e8f611f	0.28003785
58	0x3e244046	0.16040143
59	0x3dafbcdb	0.08580943
60	0x3deeb257	0.116551094
61	0x3d8e6d99	0.06954498
62	0x3e58a68d	0.21157284
63	0x3c5b473e	0.013383685
64	0x3e1be407	0.15223704
65	0x3d0a203e	0.033722155
66	0x3da220ff	0.0791645
67	0x3da33cd0	0.079705834
68	0x3d98ed78	0.074671686
69	0x3c825ff7	0.0159149
70	0x3d6602f6	0.056155168
71	0x3cb96d7d	0.022635216
72	0x3de367eb	0.11103805
73	0x3d2ac0d3	0.041687798
74	0x3d59c2b4	0.0531642
75	0x3e63d3c5	0.22248752
76	0x3df6b08c	0.120453924
77	0x3d978f54	0.074003845
78	0x3e55fdc8	0.20897591
79	0x3d1ef5c6	0.038808607
80	0x3d499826	0.049217366
81	0x3d3cc479	0.04608581
82	0x3d412791	0.047156874
83	0x3e16ba4e	0.14719507
84	0x3de5f7cc	0.11228904
85	0x3ccf4da1	0.025305571
86	0x3d64a307	0.055819537
87	0x3d9ed895	0.077561535
88	0x3d19ae9f	0.037520047
89	0x3e108759	0.14114131
90	0x3dd81a23	0.1055186
91	0x3d6b0b0d	0.057383586
92	0x3c766446	0.0150385555
93	0x3d059943	0.032616865
94	0x3e59e8bf	0.21280192
95	0x3cad084f	0.021122126
96	0x3cb12753	0.021625197
97	0x3e837ff6	0.25683564
98	0x3d9dad0d	0.076990224
99	0x3d1f83ab	0.038943928
100	0x3d55066f	0.05200809
101	0x3db46212	0.08807768
102	0x3cdba2a3	0.02681095
103	0x3d8f378e	0.06993018
104	0x3e3d3bd0	0.18479848
105	0x3de144e7	0.1099947
106	0x3d15bb8d	0.036555815
107	0x3c3482c2	0.011017503
108	0x3da36c3a	0.07979627
109	0x3e1481dd	0.14502664
110	0x3d546776	0.05185648
111	0x3e25f635	0.16207202
112	0x3dd9df3e	0.10638283
113	0x3d9820ba	0.07428117
114	0x3c9728c2	0.018452052
115	0x3dde527c	0.108555764
116	0x3dec1e38	0.11529201
117	0x3d4214f4	0.047383264
118	0x3d63884c	0.055549905
119	0x3ce90b04	0.028447635
120	0x3e0620c2	0.13098434
121	0x3d400106	0.046875976
122	0x3da0fd09	0.078607626
123	0x3e2eb0c1	0.17059614
124	0x3dab3aba	0.083608106
125	0x3d99520a	0.07486351
126	0x3d409225	0.047014374
127	0x3db0f36a	0.086401775
128	0x3c0c482c	0.008562129
129	0x3ca5264c	0.020159863
130	0x3e54082e	0.20706245
131	0x3d56a6f0	0.052405298
132	0x3dbaf240	0.09128237
133	0x3db825e0	0.08991599
134	0x3dd5c3c3	0.10437729
135	0x3b872ab8	0.0041249655
136	0x3d09fee6	0.033690356
137	0x3dca1fce	0.098693475
138	0x3d449ba6	0.048
139	0x3d42b501	0.0475359
140	0x3e1df5df	0.15425824
141	0x3dbd1fd6	0.09234588
142	0x3d76d691	0.06026322
143	0x3dbe204d	0.09283505
144	0x3dc96b8d	0.09834967
145	0x3d9f9832	0.07792701
146	0x3ca3a425	0.019975731
147	0x3db81ea5	0.0899022
148	0x3da43963	0.08018758
149	0x3e34a37e	0.17640492
150	0x3dfed613	0.12443175
151	0x3de0ece5	0.10982684
152	0x3d69b0a7	0.057053234
153	0x3e0a534e	0.1350834
154	0x3d0c1730	0.0342018
155	0x3ca6f594	0.020380773
156	0x3d66c130	0.05633658
157	0x3d8e0765	0.06935004
158	0x3d83f6a5	0.06443528
159	0x3db8de41	0.090267666
160	0x3df2f660	0.118633986
161	0x3e27a616	0.1637195
162	0x3e15ff02	0.14648059
163	0x3dce68a3	0.100785516
164	0x3d85ab07	0.065267615
165	0x3e32a734	0.17446595
166	0x3d86008c	0.06543073
167	0x3cda436e	0.026643481
168	0x3e14ada8	0.1451937
169	0x3dd101b5	0.10205404
170	0x3d2465b5	0.040136058
171	0x3e24832f	0.16065668
172	0x3d02450f	0.03180414
173	0x3db8014b	0.089846216
174	0x3e3e9a4e	0.1861355
175	0x3e158231	0.14600445
176	0x3e2255d7	0.15853058
177	0x3d815f88	0.06317049
178	0x3df3758f	0.11887657
179	0x3d5ae297	0.05343875
180	0x3d70c840	0.058784723
181	0x3c8bfe6a	0.017089088
182	0x3d7d222e	0.061800174
183	0x3e3bfe2c	0.18358678
184	0x3d83297c	0.06404397
185	0x3d62a447	0.05533245
186	0x3d763451	0.060108487
187	0x3db4ec4b	0.08834132
188	0x3d166ba8	0.036723763
189	0x3cee2c7b	0.029073944
190	0x3d57b075	0.052658517
191	0x3c2dc716	0.010606548
192	0x3d8ad7b8	0.06779426
193	0x3dacb149	0.08432252
194	0x3dc75491	0.09732927
195	0x3d90b7ff	0.070663445
196	0x3d688315	0.056765635
197	0x3de6512b	0.1124595
198	0x3d393b93	0.04522283
199	0x3d5bf793	0.053702902

layers.4.weight f4 [100, 200]
0	0x3d91aecc	0.07113418
1	0x3d4c6bb4	0.0499074
2	0x3c8687d9	0.0164222
3	0xbc550b73	-0.013003218
4	0x3d336345	0.043795843
5	0xbd88ad1d	-0.06673644
6	0x3d286301	0.041110042
7	0xbd3d7721	-0.04625619
8	0x3db7e1d0	0.08978617
9	0xbc92537b	-0.017862072
10	0xbdb4c36a	-0.08826335
11	0xbc1e71d6	-0.009670695
12	0xbdc74532	-0.09729995
13	0xbd9b91d4	-0.07596174
14	0xbc892472	-0.016741011
15	0x3c367648	0.011136599
16	0x3d65aafa	0.05607126
17	0xbda83a55	-0.08214251
18	0xbdabf63d	-0.083965756
19	0x3cd0b49b	0.025476744
20	0xbc94d8d4	-0.018169798
21	0x3c9b0f63	0.018928235
22	0xbc96a914	-0.01839117
23	0x3d88367e	0.066510186
24	0xbde577f6	-0.11204521
25	0xbd4d0cf5	-0.050061185
26	0x3d08ad15	0.03336819
27	0xbdab34e9	-0.08359701
28	0xbcab33e9	-0.020898776
29	0xbcdd93c1	-0.027047994
30	0xbd595a2c	-0.05306451
31	0x3d886dc3	0.066615604
32	0x3d94698e	0.072466955
33	0xbcee4e8a	-0.029090185
34	0x3cbb86ba	0.022891391
35	0x3dc42dc4	0.095790416
36	0xbd47343d	-0.048633803
37	0xbd023a1c	-0.0317937
38	0xbdbfb3ba	-0.09360452
39	0x3d59d063	0.05317725
40	0x3d9db59e	0.07700656
41	0x3d089ad0	0.033350766
42	0x3c9c60ae	0.01908907
43	0x3d6dd55b	0.0580648
44	0xbc35fcd5	-0.011107643
45	0x3c26f098	0.010189198
46	0xbcbccd38	-0.023047075
47	0x3cc72b2e	0.024312582
48	0xbb3ee7e0	-0.0029129907
49	0xbcc8b9a2	-0.02450258
50	0x3d852107	0.0650044
51	0x3d1e239a	0.03860817
52	0xbd232f7a	-0.0398402
53	0x3d92b71a	0.0716383
54	0xbd1f53fa	-0.038898446
55	0x3d7984ef	0.06091779
56	0xbcd53e0a	-0.02603056
57	0x3d04943a	0.032367922
58	0xbc569a30	-0.013098285
59	0xbd2e5f25	-0.042571206
60	0xbbf6c079	-0.0075302687
61	0xbcd365d1	-0.025805386
62	0xbc71bee9	-0.014754989
63	0xbdb16727	-0.08662253
64	0xbd56ae46	-0.052412294
65	0x3b3b9585	0.0028623056
66	0x3d9c3729	0.076277085
67	0xbb01e94c	-0.0019822894
68	0xbcbd84da	-0.023134638
69	0xbdd00360	-0.10156894
70	0x3b6c42ff	0.0036050675
71	0x3ce35b3e	0.027753469
72	0xbc6cb45c	-0.014447298
73	0x3dbf5891	0.093430646
74	0x3d6b28ae	0.057411842
75	0xbbb322eb	-0.005466809
76	0xbd609b71	-0.05483574
77	0xbd437349	-0.047717366
78	0x3d1f7fa9	0.038940106
79	0x3c0a137e	0.008427499
80	0x3ca13613	0.019679105
81	0x3d098ca6	0.0335814
82	0x3d9675d1	0.073466904
83	0xbce0ed5e	-0.027456935
84	0x3d037ded	0.032102514
85	0x3d16eb32	0.036845393
86	0xbd6b32ae	-0.05742138
87	0xbce12e33	-0.02748785
88	0x3d5e65aa	0.054296173
89	0x3d10f9ef	0.035394605
90	0x3d6496f3	0.05580802
91	0x3c51530b	0.012776147
92	0xbd83c17d	-0.06433389
93	0x3d13c363	0.036075007
94	0xbc9260f8	-0.017868504
95	0x3d35d44c	0.044391915
96	0xbd56a9e5	-0.052408118
97	0x3d17b492	0.03703744
98	0x3c290c0c	0.010317814
99	0x3daca59a	0.084300235
100	0x3d85b1a2	0.065280214
101	0x3cf29d76	0.029616099
102	0x3cb92253	0.022599375
103	0xbc841fba	-0.01612841
104	0x3dd1d304	0.10245326
105	0xbd21083b	-0.03931449
106	0xbc9bd775	-0.019023636
107	0xbb8c44b6	-0.004280652
108	0xbd513703	-0.051077854
109	0xbccc9f38	-0.024978265
110	0x3da6b23d	0.08139465
111	0x3cc66d76	0.024222117
112	0x3d7d91e3	0.061906707
113	0xbd551744	-0.05202414
114	0xbdf1153d	-0.11771629
115	0xbd468610	-0.048467696
116	0xbd7083db	-0.058719497
117	0x3ce39343	0.02778018
118	0xbd31476e	-0.04328101
119	0xbd163a32	-0.036676593
120	0xbc81f809	-0.015865343
121	0xbb302ffa	-0.0026884065
122	0xbc65bbe8	-0.014021851
123	0xbd679635	-0.056539733
124	0x3d2f79b0	0.04284066
125	0xbd976107	-0.07391553
126	0x3d2ed6d9	0.042685363
127	0xbd82c117	-0.06384485
128	0x3e285545	0.16438778
129	0xbd24e0cd	-0.04025345
130	0x3d84e05f	0.06488108
131	0xbcd6f3ca	-0.026239295
132	0xbcaba206	-0.020951282
133	0xbcb12888	-0.021625772
134	0x3d36f91a	0.044671156
135	0xbd02c2b8	-0.03192398
136	0x3d2e5f0a	0.042571105
137	0x3db00ca7	0.08596163
138	0xbd847f85	-0.06469635
139	0x3c85309c	0.01625853
140	0xbcdd895a	-0.027043033
141	0x3d8309f7	0.06398385
142	0xbd45d583	-0.048299324
143	0xbca644e0	-0.020296514
144	0x3d21b325	0.039477486
145	0x3d62df23	0.05538858
146	0x3bb952d8	0.0056556277
147	0xbd53535b	-0.051593166
148	0x3cbdb10f	0.023155717
149	0x3b903e28	0.004401941
150	0x3d4ebf40	0.05047536
151	0x3c2ca650	0.010537699
152	0xbb6729bb	-0.0035272676
153	0xbb90d78c	-0.0044202264
154	0xbd00dbb0	-0.03145951
155	0xbe02e8fc	-0.12784189
156	0xbb978681	-0.0046241884
157	0xbc710a7d	-0.014711973
158	0xbc580f6c	-0.013187271
159	0x3d81a2bc	0.06329867
160	0x3d1e2910	0.03861338
161	0xbd0e22a5	-0.03470101
162	0x3d8789d9	0.06618089
163	0xbb7dd1b1	-0.0038729722
164	0x3d16143c	0.03664039
165	0x39e83f71	0.00044297756
166	0x3d69d9d9	0.05709252
167	0x3cc9d6b2	0.024638508
168	0x3bb6446a	0.005562355
169	0x3bae6832	0.0053224796
170	0x3d502d5d	0.05082451
171	0xbb70ea00	-0.0036760569
172	0xbd05b17a	-0.032639958
173	0xbafc2f69	-0.0019240204
174	0xbca5cd96	-0.020239633
175	0xbdcbe5e4	-0.099559575
176	0x3d4839d3	0.04888327
177	0xbc946f86	-0.018119585
178	0xbe52efc0	-0.2059927
179	0x3d21b46c	0.039478704
180	0x3d88fb0e	0.0668851
181	0xbd5b9152	-0.053605385
182	0x3db3a58c	0.0877181
183	0x3c1060e0	0.008812159
184	0x3c4a2dd3	0.012340027
185	0x3d351694	0.044210985
186	0x3c9ff2a2	0.019524876
187	0xbc82febd	-0.01599061
188	0xbd9281ab	-0.071536385
189	0x3dab5b71	0.083670504
190	0x3d0459e0	0.032312274
191	0xbd050919	-0.03247938
192	0x3c16ba57	0.0091997
193	0x3d85d111	0.06534017
194	0x3d1f901b	0.03895579
195	0xbcae0096	-0.021240514
196	0x3c8c77ef	0.017147033
197	0x3bb069b8	0.0053836964
198	0x3dcfff0e	0.1015607
199	0x3cfbbe47	0.03073038
200	0x3d249a82	0.040186413
201	0xbc3e124a	-0.01160104
202	0xbce3d5dd	-0.027811939
203	0x3d20da2d	0.03927057
204	0xbda8a605	-0.08234791
205	0x3cbfbc8d	0.023405338
206	0x3b6e69d2	0.0036378992
207	0x3c707ae6	0.014677739
208	0x3d350e66	0.044203185
209	0xbd1ec2ff	-0.03876018
210	0xbdb87ec4	-0.090085536
211	0xbdb1d406	-0.086830184
212	0xbdd57f7a	-0.10424705
213	0xbd648827	-0.055793907
214	0xbc8ad0bc	-0.016945235
215	0x3bae6e2b	0.0053231916
216	0x3cb0769c	0.021540932
217	0x3bc66bed	0.006055346
218	0x3c4792bc	0.01218098
219	0x3ce0ba44	0.027432568
220	0xbd2f1ef7	-0.04275414
221	0x3c7f4ccd	0.015582276
222	0x3ccf84e1	0.025331916
223	0x3d6aa1e0	0.057283282
224	0xbe0c5a43	-0.13706307
225	0x3cfd51f8	0.030922875
226	0x3b337c54	0.0027387338
227	0x3cc87528	0.024469927
228	0x3d04bce2	0.032406695
229	0x3d1a2ba9	0.037639294
230	0xbdb3b2bc	-0.08774325
231	0x3dd4e08b	0.10394391
232	0x3df6bac6	0.12047343
233	0x3d4663e0	0.048435092
234	0xbd174f57	-0.0369409
235	0xbd20e7b2	-0.039283462
236	0xbcb6fc77	-0.022337181
237	0xbd7ca8d9	-0.061684463
238	0xbd0163ea	-0.031589426
239	0x3d3b39c0	0.04570937
240	0x3d819e42	0.063290134
241	0x3c60f0d9	0.013729298
242	0x3d0c2098	0.03421077
243	0x3ce12e5d	0.027487928
244	0x3cf89067	0.030342294
245	0x3b76337f	0.0037567315
246	0x3c2fee1a	0.01073792
247	0xbb15da11	-0.0022865573
248	0x3be8c2f8	0.00710332
249	0xbd1b89a9	-0.03797308
250	0xbd44727c	-0.047960743
251	0x3d0843a9	0.03326765
252	0x3bd0a11d	0.0063668624
253	0x3cb346fe	0.021884438
254	0xbd4a8a3c	-0.049448237
255	0x3c9d738d	0.019220138

layers.4.bias f4 [100]
0	0x3dbdedc3	0.09273865
1	0x3e1f08dd	0.15530725
2	0x3dda7cee	0.1066836
3	0x3df4587e	0.11930941
4	0x3dcd8623	0.1003535
5	0x3dcd1e47	0.100155406
6	0x3e1b463c	0.15163511
7	0x3e8a1fba	0.2697733
8	0x3e0bf3b2	0.13667181
9	0x3e2bae58	0.16765726
10	0x3e44f0e7	0.19232522
11	0x3e250662	0.16115716
12	0x3e27c1ae	0.16382477
13	0x3deb55e5	0.114909925
14	0x3e3c84c0	0.18410015
15	0x3e24cf15	0.1609462
16	0x3e54fe8b	0.20800225
17	0x3ca3c2ae	0.019990291
18	0x3e08b909	0.13351835
19	0x3e20f6ec	0.15719193
20	0x3df7ee67	0.121060185
21	0x3e185c26	0.14878902
22	0x3dd77980	0.10521221
23	0x3e504122	0.20337346
24	0x3e141dc2	0.14464477
25	0x3e5bbe42	0.21459296
26	0x3e4400b4	0.19140893
27	0x3e32077d	0.17385669
28	0x3dd1f7c5	0.102523364
29	0x3e1c2c3b	0.15251248
30	0x3e1ab36c	0.15107507
31	0x3dc77cd9	0.0974061
32	0x3e2c4874	0.16824514
33	0x3e280b85	0.16410644
34	0x3e4c2541	0.19936086
35	0x3d063d95	0.032773573
36	0x3e23f5c8	0.16011727
37	0x3e0b9efc	0.13634866
38	0x3e707faa	0.234862
39	0x3d4d4926	0.050118588
40	0x3e1bddd4	0.1522134
41	0x3e2278bf	0.15866373
42	0x3ddc48d0	0.107560754
43	0x3e001efd	0.12511821
44	0xbe405f03	-0.18786244
45	0x3e259a0a	0.16172042
46	0x3e09cd7a	0.1345729
47	0x3e082be9	0.13298
48	0x3d99d048	0.075104296
49	0x3d8b3861	0.06797863
50	0x3d95e17d	0.07318399
51	0x3e5aece6	0.21379432
52	0x3e13b053	0.14422731
53	0x3e2f8d04	0.17143637
54	0x3e22a6f1	0.15883996
55	0x3ddd1cb9	0.10796494
56	0x3e36d39b	0.17854159
57	0x3d73dc79	0.05953643
58	0x3e3f4453	0.18678407
59	0x3de6a120	0.11261201
60	0x3e5d9688	0.21639454
61	0x3e1ce4e3	0.15321688
62	0x3e3c1d0f	0.1837046
63	0x3e360af0	0.1777761
64	0x3dac16d0	0.08402789
65	0x3dd092aa	0.10184224
66	0x3dca3bbb	0.09874674
67	0x3e3a3f7e	0.18188283
68	0x3e417ec6	0.18896016
69	0x3e0c0119	0.13672294
70	0x3de7f63c	0.11326262
71	0x3e1ffd39	0.1562394
72	0x3e0a74ff	0.13521193
73	0x3e3e0963	0.18558268
74	0x3e0625fc	0.13100427
75	0x3e79abf1	0.24381997
76	0x3e47fd68	0.1953026
77	0x3d6ad54c	0.057332322
78	0x3df86310	0.1212827
79	0x3d9f6234	0.07782403
80	0x3d9055ca	0.07047613
81	0x3e79099c	0.24320072
82	0x3e058211	0.13037898
83	0x3cda0c9f	0.026617346
84	0x3e6d238c	0.23158091
85	0x3e4fe575	0.20302375
86	0x3e3af199	0.18256225
87	0x3e8e16e2	0.27751833
88	0x3e555768	0.20834124
89	0x3d92c4dd	0.07166455
90	0x3d7de6d9	0.06198773
91	0x3e0243ab	0.12721126
92	0x3c3884c8	0.011262126
93	0x3e031711	0.12801768
94	0x3dedfeb3	0.11620846
95	0x3e1e24ca	0.15443721
96	0x3d9d6a82	0.076863304
97	0x3dfec159	0.12439222
98	0x3e52b290	0.20575929
99	0x3e2c36e2	0.16817811
